gym-dubins-airplane/gym_dubins_airplane/envs/checkpoint.pth (torch, 414703 bytes, 8 tensors)

fc1.weight f4 [256, 8]
00000000: 0079 2dbb 9e36 423e b1fc 94be 1d38 85be
00000010: d670 0bbe ac2a c23d 408a e5bb 4187 8f3e
00000020: e083 00bd 9899 bf3d 5cd3 dabd 1c54 8ebd
00000030: c2ef acbe 90c5 6fbe 9f3d 15be 4094 563c
00000040: 6a20 0f3e 423b 593e de70 75be 86a7 1dbe
00000050: a67f 033e f750 963e e803 95bd 7b75 873e
00000060: 206b 69bd 383c 193d a1e8 a33e 20ed a7be
00000070: c5ea 63be ac4f b7bd 661f 0dbe 9d66 9c3e
00000080: 86aa 6abe 86a8 26be 53ef 7cbe 2089 a9be
00000090: 2d56 53be 979a 9b3e 5e8c 213e 5e78 2f3e
000000a0: 5052 983c 7b9c 39be 7001 753d 4d04 a9be
000000b0: 68cc 82be 4ca4 3abe 866c 643e 5e45 543e
000000c0: f68f 20be 0003 51bc b28b 673e 13f5 b33e
000000d0: ccaf 0f3e a8a2 433d f2bd 723e 522b 55be
000000e0: 70ed 863d 6558 8cbe 8aec 7abe f205 3bbe
000000f0: 0ed0 233e fe98 113e 5b74 56be b8bf da3d
00000100: c6bf 463e 40c8 36bd c02b 5d3c acc5 a73d
00000110: ae99 603e 4fd0 ad3e 6e7f 8bbe 1cad 04be
00000120: e848 0e3e c3fb 953e 3b86 9d3e 3fb9 9f3e
00000130: 181a 903d 4969 9dbe 2838 053d 4b7e 62be
00000140: a4b3 a8be 95d5 a03e cba3 893e 6492 b4be
00000150: ec86 873d c8f4 73bd 604f 6ebd c7b9 25be
00000160: 6639 0b3e d06f 56be 62b8 043e fe15 373e
00000170: 2b96 813e cc5e 073e 4529 b3be 76da 6abe
00000180: 76c5 343e e48c 973d d635 8dbe 0b78 50be
00000190: 374b aa3e baf2 733e a3db 1dbe 403d b6bd
000001a0: 4d70 acbe 003c d0bb 7751 88be 67a1 8bbe
000001b0: e095 9fbc e86e 593d 0b44 14be 5ed3 563e
000001c0: 8f50 5cbe 6540 a43e e61a 783e 88a6 98be
000001d0: 2436 b4bd 60b0 823c 9049 533d 88bb ab3d
000001e0: 0013 0e3e 507d ad3c 2aa6 30be 0e50 2b3e
000001f0: 81a4 adbe 2e95 56be 1842 b5bd 975a 30be
00000200: 724e fdbd 0c5e 94be b005 9abd b4c6 9a3d
00000210: 16db 6bbe 00a3 94bc 3595 813e e0de 14bd
00000220: 60fd 203c 80dc f9bc 2c8a 923d ce32 663e
00000230: 4978 ab3e 2eea 653e b9dc ab3e 4077 d1bc
00000240: 129d a2be 61a2 2bbe 9683 763e 0034 16bb
00000250: 33f3 33be 9db7 8abe 4668 a9be 24c8 98be
00000260: 98de 92bd 4e8b 463e a6bb 433e b094 aebe
00000270: 4ed5 613e 3ba6 8dbe d013 99bd f9cb 12be
00000280: e477 8bbd d42a 8ebd 0c70 a2be 884c 9cbe
00000290: 409b 62bd 80d2 953b 0f77 24be 3261 083e
000002a0: 8fed a2be c076 c3bc 2131 9f3e 34ac 13be
000002b0: 0576 a33e 1a1d 033e e65c a3be 960f 653e
000002c0: e81b 27bd d59d 21be b1c0 903e e647 92be
000002d0: e864 1b3d 6099 97bd a944 813e 4c1f ca3d
000002e0: 26f6 2d3e e4b6 ff3d 4c1f aebd 0447 98bd
000002f0: b72c 95be 262b 443e b3b9 8f3e 42b7 773e
00000300: cc5f 7fbe d02c 813c a236 7fbe eb4b 47be
00000310: 40f6 52be 2873 f73d 5dbe 57be 00c2 fcbb
00000320: 40af 733c e260 693e 0ed6 88be 428b 78be
00000330: d038 52be 2a67 7d3e e623 02be 11b0 983e
00000340: 7aea 023e c05f 373d 807b 2cbb 0023 8fbd
00000350: d8b1 353d d856 a5bd 80ce 22bb 40c6 383d
00000360: 2098 8dbe 7fc1 3dbe fb2b 923e d8e7 92be
00000370: 10f9 cfbc 4312 b33e 22c8 023e c001 243c
00000380: 87df 9cbe 9258 333e c4ef 80be 288a cdbd
00000390: 94f0 f2bd 1874 56bd 0072 7d3b 5d4e 953e
000003a0: 30c9 343d 4123 a23e aa76 5d3e cae2 64be
000003b0: 3660 223e 78ec 7fbe eb70 19be b4f7 d43d
000003c0: a815 ef3d 47ce 873e 8c17 e9bd 005e 143a
000003d0: d262 3a3e f80f afbe 9bdf 823e 5fb0 95be
000003e0: 80ac 9f3b e835 76bd 0dad 3ebe 7067 3f3d
000003f0: 33b0 953e 74a9 d3bd b2f0 56be 5de5 05be
-0.0026469827 0.18966147 -0.29099038 -0.26019374 -0.13617262 0.09480795 -0.007005006 0.28032878
-0.031375766 0.093554676 -0.10684845 -0.06949636 -0.3377667 -0.23415208 -0.14574288 0.013096869
0.13977209 0.21214011 -0.23968837 -0.15395936 0.12841663 0.29358646 -0.07276136 0.26456818
-0.056986928 0.037410945 0.3201342 -0.327981 -0.22257526 -0.08950743 -0.13781509 0.30547038
-0.22916612 -0.16275224 -0.2470067 -0.3311243 -0.20638342 0.3039138 0.15776202 0.1713576
0.018593937 -0.18126099 0.059815824 -0.33011094 -0.25546575 -0.18226737 0.22307023 0.20729586
-0.15679917 -0.012757063 0.22611883 0.35147914 0.14031905 0.047762543 0.23705271 -0.20817307
0.06588256 -0.2741119 -0.24504295 -0.18263987 0.15997335 0.14218518 -0.20942824 0.10681099
0.19409093 -0.044624567 0.0134992 0.08192 0.21933624 0.3394799 -0.2724566 -0.12956661
0.13894999 0.2929364 0.30766472 0.3119602 0.07036227 -0.3074439 0.032524258 -0.2211849
-0.32949555 0.3141295 0.26882777 -0.35267937 0.06617531 -0.059559613 -0.058181167 -0.1618415
0.13596115 -0.2094109 0.12960961 0.17879483 0.25309882 0.13219756 -0.34992424 -0.22934899
0.1765345 0.0739992 -0.27580136 -0.20358293 0.3326051 0.23823062 -0.15415816 -0.08898401
-0.3367943 -0.006354809 -0.26624653 -0.27271578 -0.019480646 0.053084284 -0.14479081 0.20979068
-0.21515106 0.3208038 0.24229011 -0.29814553 -0.08799389 0.015953243 0.051583827 0.08385378
0.13874435 0.021177918 -0.17250887 0.16729757 -0.3391457 -0.20955345 -0.08850497 -0.17222057
-0.12368478 -0.28978002 -0.07520616 0.07557431 -0.23032793 -0.01814413 0.25309148 -0.036345363
0.009826034 -0.03050065 0.071552604 0.22480318 0.33490208 0.22452614 0.33566836 -0.025569558
-0.3176046 -0.16761161 0.24073634 -0.0022919178 -0.17573242 -0.2709321 -0.33087367 -0.29840195
-0.07171363 0.19389078 0.19114551 -0.34097815 0.22054026 -0.27665886 -0.07474482 -0.14335622
-0.06809977 -0.069417626 -0.3172611 -0.3052714 -0.05532384 0.0045722127 -0.16061042 0.13318327
-0.31821868 -0.023860335 0.3109217 -0.14421159 0.3192598 0.1280407 -0.31906813 0.22369227
-0.040798098 -0.15782864 0.28272012 -0.2857048 0.03793803 -0.07402301 0.25247696 0.09869251
0.1698843 0.124860555 -0.08502063 -0.0743542 -0.29135677 0.19157085 0.28071365 0.24191001
-0.24938887 0.015768439 -0.24923185 -0.19462554 -0.2060175 0.12082511 -0.21068712 -0.0077135563
0.014873326 0.22790864 -0.2672581 -0.24271873 -0.20529485 0.24746385 -0.12709007 0.29821828
0.12784758 0.04476905 -0.002631873 -0.069890976 0.04435906 -0.08073205 -0.0024842322 0.04511094
-0.27655125 -0.18530844 0.2854918 -0.28692508 -0.025387317 0.3497487 0.12771657 0.010010183
-0.30639288 0.17514256 -0.25182927 -0.10036117 -0.11862293 -0.05235681 0.0038672686 0.2916135
0.04413718 0.31667522 0.21627298 -0.22352138 0.15857014 -0.2499255 -0.14984481 0.10398808
0.116740525 0.26524565 -0.11381444 0.0005659759 0.1820176 -0.3419187 0.25561222 -0.29236123
0.0048728585 -0.060110003 -0.18620701 0.046729505 0.29235992 -0.10335055 -0.20990255 -0.13075776

fc1.bias f4 [256]
00000000: d733 3dbe 701a d1bd f251 6abe 52aa 1b3e
00000010: 588f 093d 52bb f7bd 2005 13bd c0b5 e5bb
00000020: 2536 9b3e 0197 a13e 7c5b 8bbe 9eaf 043e
00000030: e4cc 0b3e 8e6e 0a3e e06d 45bd 4815 b53d
00000040: 4c34 b63d 972f b03e 747e adbe 8862 09be
00000050: 9094 73be 3b9d 2fbe fc29 8e3d 2ecd 5c3e
00000060: ade3 88be 6679 6b3e b134 973e 9073 32be
00000070: 48c2 7c3d cedc 39be 7416 9b3d 71d9 27be
00000080: af08 0dbe cc5a 72be b9f3 96be bd74 903e
00000090: d8e0 36bd 20b3 20bc f62c 34be 8e57 7c3e
000000a0: a738 4fbe 516e 12be 6c4e 8dbe 3437 98be
000000b0: 31b5 a03e 48c8 8bbe 10ee 47bd 7097 d1bd
000000c0: 3e9c 043e 14ab c13d 8ec4 8abe 9f91 a23e
000000d0: b851 b4be 283b 0f3d 10f8 f1bc 50cc a7bd
000000e0: a2b7 763e 71d6 983e 40a4 3c3d 50be ffbd
000000f0: 2994 863e 3a75 633e d80c 823d 1c0b c6bd
00000100: 6037 743c 6957 a13e 680b 1d3d bcb0 8ebd
00000110: cf42 99be 9e02 42be 0dbd 823e a0fa 4bbc
00000120: c0df c0bc b0f6 0c3e ed31 6ebe 50a7 c3bc
00000130: 64a6 cbbd 1a6d 3d3e 5f51 933e aa53 633e
00000140: c1f5 863e ffc6 a1be 9f87 00be 107c 2b3d
00000150: e8bf 99be 206c c43d 4a4f 6dbe 5a23 1b3e
00000160: 2782 923e 52da 9abe 0baf 973e 82ed 283e
00000170: caea 6ebe 8544 ad3e 5cc7 9cbe 47bb 73be
00000180: 3618 34be 20aa 92bc d005 823d d47e d4bd
00000190: 2494 abbe a829 27bd 9f57 893e 9f5f 8b3e
000001a0: d23b 353e 8841 523d 30ea b33d ae8c 8bbe
000001b0: 909a 123e 2c28 b4be d482 15be 1449 bebd
000001c0: a7ed 843e c0db 28bc 78e9 24be 5801 7d3d
000001d0: 5834 96be 70b4 bfbd e888 c83d 60d1 bfbc
000001e0: b015 18bd e244 5d3e e281 89be 77cd 36be
000001f0: b738 af3e 5815 903d e078 6abd f287 3b3e
00000200: fecb 593e 00fd 71bd d8cd 16be 40b6 6cbd
00000210: 9475 033e 28e0 38bd eab4 523e 5c9e 93be
00000220: ada0 31be 8bff 893e 60fb 3d3d 04cf 913d
00000230: 4825 ee3d 3418 abbd 35c8 10be f0b9 cf3d
00000240: 28e7 bfbd b28e 15be a853 3f3d 0c24 af3d
00000250: 98c1 02bd 54d8 74be d8f6 5abd 622d 4dbe
00000260: 0a8c 3e3e ffe2 6fbe 5155 903e 1c32 103e
00000270: 8b02 9bbe a955 863e 3e04 b3be 2065 a8bc
00000280: 9a0a 62be f9b9 9bbe b07b 0f3d a189 2fbe
00000290: e5d8 823e 134d 8ebe 0b40 963e b66a 5a3e
000002a0: 2d8c 9e3e 7c08 d4bd d5e9 5dbe 9e86 70be
000002b0: c587 963e ba11 34be c04e 32bd a836 5fbd
000002c0: 2023 793d 6c8a 94be 87f6 913e 74f1 85be
000002d0: 130b b23e f7a8 0dbe 429f 21be 700d 47bd
000002e0: 8c4b d63d 1429 86bd 83aa b4be eea6 7e3e
000002f0: 2b4c b33e aea8 363e d521 b13e f858 c53d
00000300: 40f4 e2bc 592e 90be 3836 9ebe 3443 79be
00000310: 10b7 b7bd 52d1 523e 105f 15be 20fb 60bc
00000320: c080 a3bb 34a8 6cbe a0ce 1cbc adc8 ae3e
00000330: 37ae 903e 29de 893e 88d3 0ebd c076 cd3b
00000340: f6eb 453e eed8 f0bd 4db9 12be cbe0 9a3e
00000350: b05a a53c 7073 74be 2187 983e 585c 703d
00000360: 26b6 413e 9537 9dbe 445e 863d ee70 5d3e
00000370: 08eb 50bd d0c8 4dbe 8dd3 903e 4e64 283e
00000380: a838 ce3d f83d ab3d 80b4 ff3b fe9d 4f3e
00000390: f849 9ebd b61c 55be 683e 0a3e 402e c13d
000003a0: 82d8 093e 20d9 20bd 302d 40bd 2032 e6bc
000003b0: 3ced be3d 21e8 8abe 84b8 a8be 3079 073e
000003c0: af37 46be 40a5 f3bc 24bc c83d 081e 4b3d
000003d0: 8264 693e 48d4 3d3d 8043 b33d 28a0 01bd
000003e0: 08c3 553d 34c0 043e eefc 763e 9b84 abbe
000003f0: ddcf 16be 836f a2be be57 10be feb0 5c3e
-0.18476807 -0.10210121 -0.22882822 0.15201691 0.03358397 -0.120962754 -0.03589356 -0.0070101917
0.30314746 0.3156052 -0.27218235 0.12957618 0.13652378 0.13518736 -0.048200488 0.0884195
0.088966936 0.34411308 -0.3388554 -0.13416493 -0.23787141 -0.17149822 0.06941602 0.21562645
-0.26736203 0.22995529 0.29532388 -0.17426896 0.06170872 -0.18150637 0.07572642 -0.16391541
-0.13772844 -0.23667449 -0.2948282 0.28214064 -0.04464802 -0.009808332 -0.17595276 0.24642774
-0.20236455 -0.14299895 -0.27598894 -0.29729617 0.31388238 -0.2730124 -0.04881102 -0.102339625
0.12950227 0.09456459 -0.27103084 0.31751725 -0.35218596 0.034968525 -0.02953723 -0.081932664
0.24093488 0.29851106 0.04605508 -0.12487471 0.26284912 0.22212687 0.06350106 -0.09670088
0.014905781 0.31512 0.038340956 -0.06967303 -0.29933783 -0.18946311 0.2553486 -0.01244989
-0.023544192 0.13765979 -0.23261233 -0.023883492 -0.09943846 0.1849865 0.2877302 0.22199884
0.2635937 -0.31597134 -0.12551735 0.041866362 -0.30029225 0.09590936 -0.23174778 0.15150204
0.28614923 -0.3024469 0.29625735 0.16496852 -0.23331752 0.3384134 -0.3062085 -0.2380191
-0.1758736 -0.017903388 0.06348765 -0.10375753 -0.3351146 -0.04081121 0.26824662 0.2722139
0.17698601 0.051332027 0.08784902 -0.27255768 0.14316773 -0.351869 -0.14600688 -0.09291282
0.25962564 -0.010306299 -0.16104686 0.06176886 -0.2933681 -0.093605876 0.09791738 -0.023415267
-0.037130058 0.21608308 -0.26856905 -0.17851816 0.34222957 0.07035321 -0.05724418 0.18313578
0.21269223 -0.05907917 -0.1472696 -0.057790995 0.12837821 -0.045135647 0.20576826 -0.28831756
-0.17346449 0.26952776 0.046382308 0.07119563 0.116282046 -0.08354226 -0.14138873 0.10142887
-0.093702614 -0.14605215 0.04671064 0.08551797 -0.031922907 -0.23910648 -0.053458065 -0.20036843
0.18608108 -0.23426436 0.2819009 0.14081615 -0.30275378 0.2623723 -0.34964174 -0.020556033
-0.22074357 -0.30415323 0.035030067 -0.17142345 0.25556102 -0.27793178 0.29345736 0.2132977
0.3096632 -0.10353181 -0.21671231 -0.23488852 0.2940046 -0.17584887 -0.043532133 -0.054495484
0.060824513 -0.29011858 0.28508398 -0.26160777 0.34774074 -0.13833986 -0.15783408 -0.0485968
0.10463628 -0.06550804 -0.3528634 0.24868366 0.3501905 0.17837784 0.34596124 0.0963611
-0.027704358 -0.2816036 -0.3090074 -0.24342042 -0.08970463 0.20587662 -0.14587045 -0.013731748
-0.0049897134 -0.2311104 -0.009570748 0.34137478 0.28257915 0.26927307 -0.0348697 0.0062702596
0.19328293 -0.11760126 -0.14328499 0.30249628 0.020184845 -0.23872161 0.29790595 0.058681816
0.1891714 -0.30706468 0.065609485 0.2162511 -0.051005393 -0.20096135 0.282864 0.16444513
0.100694 0.08361429 0.0078034997 0.20275113 -0.07728952 -0.20811734 0.13500369 0.094326496
0.13461497 -0.039269567 -0.046918094 -0.028100073 0.093225926 -0.27130225 -0.32953274 0.13229823
-0.19357179 -0.029741883 0.0980151 0.049589187 0.22792247 0.046345025 0.08753109 -0.031646878
0.05218795 0.12963945 0.24119923 -0.33499607 -0.14727731 -0.31725702 -0.14095971 0.21551892

fc2.weight f4 [256, 256]
00000000: 7c8f 72bd 7261 65bd da3a 143d 702d 17bd
00000010: 0a1a 3b3d 9c88 9f3c 3c85 803c 9e5e 4b3d
00000020: ae21 6dbd b277 3b3d 580a a63c 4e8c 2bbd
00000030: c826 793c b4b1 8ebc 0883 cdbc 30ce ddbb
00000040: dc63 f1bc 16db 5f3d fa56 5c3d d079 dabb
00000050: cc03 63bd 2093 7abb f04f 873b a41d 2b3d
00000060: 00c9 033b fc03 953c 04da 873c 3a41 11bd
00000070: 1ccb 1ebd 1ece 64bd 00a9 00ba dc94 9e3c
00000080: 609f 91bb 947d 783d 4057 43bc 020c 27bd
00000090: f8aa 2a3c 542f 90bc 2861 0cbc 1a0d 783d
000000a0: 800c ebba 6ea0 5f3d 28c0 083c a479 bebc
000000b0: 54b0 3b3d 32d3 11bd 2086 073b 282b 663c
000000c0: 98cd e53c 6a33 6cbd a0ee 483b 2091 84bc
000000d0: 56fb 253d 6042 ac3c 4435 cd3c 2aec 193d
000000e0: 1041 65bc e036 83bb 7e60 4d3d 4e55 4ebd
000000f0: c6f3 30bd 50d2 953b 3cd1 cabc 0095 6a3b
00000100: e223 623d 6069 edbb 4246 5abd 64be e8bc
00000110: 161a 6b3d 40f6 60bc 2c80 e0bc fc76 e63c
00000120: e088 fd3b c0b5 61bd 8231 553d f228 103d
00000130: ea82 5e3d 040d e03c 709f acbc 1824 a7bc
00000140: 6420 f83c a081 46bc 40c2 483c 9c0f 78bd
00000150: d017 fdbc 602e be3c a0ed 49bb f424 f6bc
00000160: ec4c 5fbd 0eb4 223d 60e2 4dbc 4887 7bbd
00000170: 1cfc 763d 2027 f93c a41f 19bd 3ad6 3abd
00000180: 4660 773d 00d1 8839 d2f6 19bd 7a50 133d
00000190: 584c 55bc 504b 8c3b e85b 05bd a6d4 58bd
000001a0: f203 2abd 60e0 e0bb a254 39bd dc50 7c3d
000001b0: 8053 313a 8802 c4bc 4c5a ca3c 2cf6 62bd
000001c0: 26f1 02bd c84e c03c 7e83 59bd ac2e ff3c
000001d0: 2025 ac3b 6474 55bd 0a10 7ebd 64d1 a13c
000001e0: 9401 f23c 40b4 4cbc 905e 62bd 708b 13bd
000001f0: 20ab d93b 4004 153b 680f 833c 5810 353c
00000200: 80b2 56bb 1619 073d d052 783d 4833 553d
00000210: fc9e 683d 3ccd acbc d0c0 aebc f082 e2bb
00000220: 7c53 973c 283f cf3c 008d b6bb 6c5b 25bd
00000230: ea26 41bd ba74 763d 78a7 89bc b069 0abc
00000240: 68e4 1cbd 3cd4 fdbc 38e9 603c c0a5 d73c
00000250: d867 cabc f873 bcbc f2ca 4a3d 22d8 03bd
00000260: 6aff 3ebd 90c2 1fbc 6698 733d a0cf 5e3c
00000270: 487d 0d3c 6000 ffbb b6f8 1f3d f4c5 fdbc
00000280: 2092 2d3d f8e9 713c 00b4 e33b 68f8 0c3c
00000290: b4e1 1dbd 0822 3e3d 0674 063d da38 48bd
000002a0: 5e5b 6ebd c0cd 83bc fc12 2a3d e412 fcbc
000002b0: 3045 6d3d eab5 00bd d43e 67bd f038 e13c
000002c0: 4ab6 1abd f06b 21bc e0b1 9fbc 80bb a2bb
000002d0: 4e12 5fbd b4cd 6abd d018 dc3c f011 e8bb
000002e0: 506d 1abd 40b0 d0ba d6a8 69bd 10e8 873c
000002f0: 7c26 f33c e645 783d 6a8e 50bd b055 f8bb
00000300: 0eee 0a3d 2c9d 6a3d 0823 36bd a894 d93c
00000310: ec62 d33c be55 1a3d 947d 30bd 92af 363d
00000320: 3402 dfbc 9a94 1dbd 9052 4b3c 2ede 583d
00000330: 5a87 29bd 32ae 083d 708c eabb 1473 a33c
00000340: b2b2 473d b404 8b3c 2285 54bd a026 9abc
00000350: 983d 4b3c 8af5 57bd 603d 2a3c cc76 09bd
00000360: 408c 4bbc d429 b73c aa08 4ebd 0e5b 24bd
00000370: 8086 e93c c431 7dbd 1c2d 303d 7265 45bd
00000380: 00e8 83ba e835 523c 0408 ca3c 14e4 1ebd
00000390: 78cd 093c f075 dc3c da92 5b3d 14a7 40bd
000003a0: 548d febc 6827 953c 207e 03bb 78c1 2cbd
000003b0: 6c76 57bd 564f 63bd b222 33bd 58fe d9bc
000003c0: 2ac4 31bd 4493 60bd 60dd 9f3b 0022 163d
000003d0: bc66 f1bc a0cb cc3b 00fa 49ba 6c53 ef3c
000003e0: aa89 31bd c076 423b faf2 6e3d 5ec3 363d
000003f0: d4b9 7dbd 0827 1abc 00ba 183a 780f a9bc
-0.05921887 -0.056001134 0.036188938 -0.036908567 0.04567913 0.01947432 0.015688531 0.04965078
-0.057893448 0.045768447 0.020268604 -0.04188185 0.015207 -0.01741872 -0.025086895 -0.006768964
-0.029466562 0.054652296 0.053793885 -0.006667353 -0.055423543 -0.0038234666 0.0041294023 0.041776314
0.002010882 0.018190376 0.01658345 -0.035462596 -0.03876792 -0.05586063 -0.00049079955 0.019358091
-0.004444048 0.060666636 -0.0119226575 -0.040782936 0.010416739 -0.017600693 -0.008568086 0.06055937
-0.0017932802 0.054596357 0.008346595 -0.023251362 0.045822456 -0.035601802 0.002067931 0.014048375
0.028052136 -0.05766622 0.003065981 -0.016182482 0.040522896 0.021027744 0.025049813 0.03757874
-0.013992563 -0.0040043443 0.05014085 -0.05037432 -0.04320123 0.0045721903 -0.024757974 0.0035794377
0.05521 -0.0072452277 -0.05328966 -0.028411098 0.057397924 -0.013730586 -0.027404867 0.028132908
0.007737264 -0.05510497 0.052049167 0.0351953 0.054324068 0.027349956 -0.02107212 -0.020402953
0.030288883 -0.012115866 0.012253344 -0.06056176 -0.030895144 0.023215473 -0.0030811802 -0.030046917
-0.054516718 0.039722495 -0.012566179 -0.06140831 0.060299024 0.030414164 -0.03738369 -0.04561446
0.060394548 0.00026095659 -0.0375889 0.03596542 -0.01301869 0.004281439 -0.03255835 -0.052937172
-0.04150767 -0.006862685 -0.045246728 0.06160055 0.00067644566 -0.023926988 0.02470126 -0.05541055
-0.03196826 0.023475066 -0.053103916 0.031150185 0.005253449 -0.052112952 -0.062027015 0.019753166
0.029541768 -0.012494147 -0.055265963 -0.03602165 0.006642714 0.002273813 0.015998557 0.01105126
-0.0032760203 0.03298291 0.06062585 0.05205086 0.056792244 -0.021093957 -0.021332175 -0.0069125816
0.018472426 0.02529867 -0.0055710077 -0.04037039 -0.047156252 0.060169913 -0.016803488 -0.008448049
-0.038303763 -0.03098499 0.013727479 0.026324153 -0.02470772 -0.023004517 0.04950995 -0.032188542
-0.0466303 -0.009750977 0.05947151 0.013599306 0.008635826 -0.007782027 0.03905555 -0.03097818
0.042375684 0.014765255 0.006948948 0.008604147 -0.038545325 0.046419173 0.032825492 -0.048882343
-0.058192603 -0.01608932 0.04152201 -0.030770727 0.05792731 -0.031423487 -0.056456402 0.02749297
-0.0377715 -0.009852394 -0.019493997 -0.0049661994 -0.054460816 -0.05732508 0.0268673 -0.0070822164
-0.037701905 -0.0015921667 -0.05704578 0.016590148 0.029681437 0.060613535 -0.050917067 -0.007578574
0.033918433 0.057278797 -0.044467002 0.026560143 0.025804006 0.037679426 -0.04308851 0.04460103
-0.02722273 -0.038471796 0.012409821 0.052946262 -0.041388847 0.03336925 -0.0071578547 0.019952334
0.0487544 0.016970016 -0.051884778 -0.018817246 0.012404822 -0.0527244 0.0103906095 -0.03356056
-0.012423575 0.022358812 -0.05030123 -0.0401259 0.028506517 -0.06181504 0.04301177 -0.04819245
-0.0010063648 0.012830235 0.024662025 -0.03879173 0.008410804 0.026911706 0.053606845 -0.047034338
-0.03107325 0.018207267 -0.002006419 -0.042176694 -0.05260317 -0.055495583 -0.04373426 -0.026610538
-0.043399967 -0.054827943 0.004878685 0.03665352 -0.029467933 0.00624986 -0.00077047944 0.029214583
-0.043344177 0.0029672831 0.05833719 0.04461991 -0.061944798 -0.00940872 0.0005826056 -0.020637259

fc2.bias f4 [256]
00000000: 48ad 793d a0d4 153d 60bc aabc 5ce2 b6bc
00000010: dcd0 16bd d8f8 14bd e493 5dbd 2270 53bd
00000020: c00b a2ba f403 e0bc 200e 6d3b 300e 913c
00000030: 6abf 5c3d e282 7f3d 488e c33c 0ad8 3ebd
00000040: e881 063d 303b d33c e4da 3cbd daed 0c3d
00000050: f8df bf3c 162a 173d 30b4 22bd c0a2 bc3c
00000060: 5871 00bd 0085 6eba 8e70 523d e022 c5bb
00000070: 860a 72bd e038 e0bb ccd9 193d e40b 9f3c
00000080: 6c45 2fbd 02f9 243d ec52 71bd 70b8 0b3d
00000090: 5884 203d 1001 793c fe62 74bd 682b cd3c
000000a0: 30a9 87bb fa63 50bd 0a60 1abd 1425 f93c
000000b0: 70a3 dabc 6825 1bbd 7427 223d ac69 a13c
000000c0: 6039 b0bb 36a4 2cbd d405 52bd 1e94 7e3d
000000d0: 307c 01bd 0018 6bbc 5af6 363d c679 23bd
000000e0: bc61 133d b0e3 09bd 006d 19ba e076 603c
000000f0: 2e20 153d 103c 173c 1674 7e3d 94ac ce3c
00000100: b4eb c6bc d852 24bd 2808 67bc 6ae2 4abd
00000110: 2c05 02bd fef9 1f3d d03b 2abc 78f3 19bc
00000120: 183c fabc 9a0a 15bd 1061 f8bb 14d5 7cbd
00000130: 6044 63bd 02b2 283d 04f5 1a3d d25a 61bd
00000140: 2898 393c a0f8 48bc 082b 073d e489 c9bc
00000150: 8ab3 173d f0ca e4bb dc1f 063d 5003 99bb
00000160: e0f2 30bb 6cb7 c6bc c07f 67bb d0ab 3f3d
00000170: c6a7 65bd 327e 4bbd 98b7 3dbd c05a b1ba
00000180: 5ecb 2e3d d2e9 363d c08d f0ba 0889 a43c
00000190: befe 473d caa0 2fbd 48fc af3c c01f 4d3b
000001a0: 2285 2cbd fe60 59bd 7815 ef3c 82eb 03bd
000001b0: 606a 4bbc cc1e b3bc 8052 513a d21f 0bbd
000001c0: 7ca0 9ebc 2444 65bd b444 003d dc2f ffbc
000001d0: 1aa3 07bd 583e 1f3c 904f 523d 1008 8e3c
000001e0: 5492 a7bc c090 ec3b 660f 24bd ac2d c8bc
000001f0: b021 b0bb cc51 69bd 6cbc 8abc 8a7a 573d
00000200: 0887 033c 92c9 29bd d897 68bd b831 e13c
00000210: 4046 9fba 082a 7b3c 6090 5e3d fcfd 8a3c
00000220: d6ae 273d 8c49 2bbd 40b2 c4bc 6299 6abd
00000230: a0cb 84bb a012 3a3d 9006 a93b e60c 0dbd
00000240: 809d 083b f463 e3bc fa95 6abd 80ff 473c
00000250: 6885 a33c a036 b7bb 90fc 963b 38a7 b53c
00000260: 0aff 4bbd c4b0 52bd a699 03bd 6c32 183d
00000270: 8a1a 36bd 38fa 7dbd ccf8 ffbc 4021 b5bb
00000280: 001a 633b f8bb 283d 908f 3ebd 501b 463d
00000290: aa32 233d d8cf a23c 3e6f 533d 185a 633c
000002a0: f8ef 1a3d 50dc 52bc 9014 463d d4f4 a9bc
000002b0: e0e9 c43c 0042 1cb9 720b 7f3d 60db bb3b
000002c0: 9477 2bbd 1229 4e3d 8846 cabc a47e 753d
000002d0: fc67 77bd 889b 0ebd ec3a 5dbd 50b7 87bc
000002e0: 106f 2fbc 5053 adbc d291 31bd 88bf 843c
000002f0: 168d 0d3d c060 45bb 00ea 5339 8e6f 42bd
00000300: 8889 b43c 183d 76bc ae2b 743d e6c3 7e3d
00000310: 3c8b 1fbd 84c0 64bd 40b0 6dbb 3c3d d2bc
00000320: 48c1 993c 2ce5 f03c 20b2 f33c 9cf0 eb3c
00000330: a08e 07bc 383c 233c bc4f 2ebd 0059 183b
00000340: 42b0 4bbd 3014 e6bb b045 6b3c 3841 d6bc
00000350: 14e4 7bbd c88c 6dbd 600d 433c f23c 27bd
00000360: 6837 563d a4da cfbc 3679 5abd 044c 17bd
00000370: 1c1c f33c 507d b9bb 0c95 98bc c882 8d3c
00000380: aca6 3ebd 083a 573d c068 c83a 68b3 dd3c
00000390: 9271 2dbd b60f 563d 60fd 69bb b4d2 523d
000003a0: e61b 2f3d 383a 5d3c d016 a43b 3815 a33c
000003b0: 0e9c 23bd d812 97bc 980c 5b3c e886 eb3c
000003c0: c800 323c d8f7 e2bc 7843 4e3c e08e 3c3b
000003d0: 000d e0b9 c07f 633b 48d7 7b3d 9c2e 55bd
000003e0: 18d8 73bc 26a8 173d 4063 fe3b 666f 70bd
000003f0: 1cff 0e3d c0b1 f0bc 8019 debc 1476 603d
0.06095627 0.036579728 -0.020841777 -0.022324733 -0.036820278 -0.03637013 -0.054096118 -0.05162061
-0.0012363121 -0.027345635 0.003617175 0.01770696 0.053893484 0.06238068 0.023871556 -0.04659275
0.032838732 0.025785059 -0.046107188 0.03440652 0.023422226 0.03690537 -0.03972262 0.023026824
-0.031358093 -0.0009098798 0.05137687 -0.0060161203 -0.059092067 -0.0068427175 0.037561223 0.01941485
-0.042790815 0.040276535 -0.05891697 0.03411144 0.039188713 0.015198007 -0.05966472 0.025045112
-0.004140042 -0.050876595 -0.037689246 0.030413188 -0.026689261 -0.03787747 0.039588407 0.019703709
-0.0053779334 -0.04214879 -0.05127509 0.062152974 -0.031612575 -0.014348984 0.044668533 -0.039911054
0.03598188 -0.033664405 -0.0005852729 0.013700217 0.036407642 0.009230629 0.062122427 0.025228776
-0.024282314 -0.04011807 -0.014101066 -0.04953233 -0.031743214 0.03905677 -0.010390237 -0.009396426
-0.030546233 -0.036387064 -0.00757993 -0.061726645 -0.05548513 0.041185386 0.03783132 -0.055018254
0.011327781 -0.012266308 0.033000022 -0.024601884 0.037036456 -0.0069822 0.032745227 -0.0046695843
-0.0027000234 -0.024257384 -0.0035323948 0.046794713 -0.056068204 -0.049680896 -0.046317667 -0.0013531074
0.042674415 0.044656582 -0.0018352792 0.020084873 0.048826925 -0.04287795 0.021482602 0.0031299442
-0.042119153 -0.053071015 0.029185042 -0.03220702 -0.0124154985 -0.021865271 0.0007985011 -0.033965893
-0.019363634 -0.055973187 0.03131552 -0.03115075 -0.03311453 0.009719454 0.051345408 0.017337829
-0.020455517 0.007219404 -0.040053748 -0.02443584 -0.0053751096 -0.056962773 -0.01693555 0.052607097
0.008027799 -0.041451998 -0.056785434 0.027489528 -0.0012151673 0.015329845 0.054336905 0.016966812
0.04093822 -0.041818187 -0.024010777 -0.057275183 -0.0040525943 0.04542792 0.005158253 -0.03443613
0.002084583 -0.027757622 -0.057271935 0.012206912 0.019961074 -0.0055912286 0.0046077445 0.022174463
-0.04980377 -0.051438108 -0.032128952 0.03715746 -0.044458903 -0.062006205 -0.031246565 -0.0055276453
0.0034652948 0.041194886 -0.04652363 0.04836589 0.03984324 0.019874498 0.05161976 0.0138764605
0.03782651 -0.012869909 0.048359454 -0.020746626 0.024037302 -0.00014901906 0.062266774 0.0057329386
-0.041862085 0.050332136 -0.024691835 0.059935227 -0.0604019 -0.034816295 -0.05401127 -0.016566902
-0.010707632 -0.02115789 -0.043351956 0.01620461 0.03455838 -0.0030117482 0.000202097 -0.047469668
0.022038236 -0.015029214 0.05961197 0.062198542 -0.038951144 -0.05584766 -0.0036268383 -0.025663964
0.018768921 0.029406153 0.029748023 0.028801255 -0.008273751 0.009963088 -0.04255651 0.0023246408
-0.04972864 -0.0070214495 0.0143598765 -0.026154146 -0.06149681 -0.057995588 0.011905044 -0.040829606
0.052298933 -0.02537281 -0.053338252 -0.03693773 0.02967649 -0.0056606904 -0.018625759 0.017274275
-0.04654567 0.052545577 0.0015290007 0.027063087 -0.042344637 0.052261077 -0.0035704002 0.051470473
0.042751215 0.01350265 0.0050076023 0.019907579 -0.039943747 -0.018441603 0.013369702 0.028750852
0.010864444 -0.027706072 0.012589328 0.0028771684 -0.00042734295 0.0034713596 0.061484605 -0.052046403
-0.014883064 0.037025593 0.0077632964 -0.058699988 0.03491126 -0.029381633 -0.027111769 0.054800108

fc3.weight f4 [128, 256]
00000000: 7cca 313d 72d2 673d 8c54 b83c 209d 2d3b
00000010: 0a6b 463d 00fa 653a b0e1 893c 7044 19bc
00000020: 9602 4dbd 002c edba f4b0 8f3c 820d 38bd
00000030: a889 af3c 92a6 4ebd 8482 7dbd 44f2 23bd
00000040: a0ea 293b f0aa 43bd 5657 643d 06a3 57bd
00000050: 24eb 01bd d4b4 813c 86d7 303d e4eb e8bc
00000060: ee08 4e3d 484f 0a3c b824 bfbc a4bd f8bc
00000070: 20b6 23bc a8a1 cebc 0227 783d dcfe 6bbd
00000080: 30fd c3bc 7a3a 303d a051 51bd 388b d1bc
00000090: 4863 383c a0a9 33bc 88f1 02bd 805e ed3b
000000a0: e4ad b93c 8615 52bd 901e 5b3c 6c0b a43c
000000b0: a22b 753d 18b6 dabc d85c f33c 7cf2 91bc
000000c0: b613 173d 6c5b a2bc e8f0 273d c011 2abd
000000d0: 94de 713d 008f 6b3b 9001 b73c 2011 913c
000000e0: 76e2 0dbd b897 593c d425 43bd 1432 503d
000000f0: 34ea e4bc 9283 5ebd 28c0 373c 503a 44bc
00000100: 54c2 443d d0ec 753c d6e6 093d 2015 8f3c
00000110: 94a3 35bd 66ed 6e3d 8e61 553d 0ee8 693d
00000120: 9cc5 5c3d 46f9 39bd 98c7 4b3d f8dd 1abc
00000130: 90b0 a3bb 0cf5 163d 72c8 6ebd 5866 4e3d
00000140: c002 843a 2caf 5dbd 8005 7b3a b0f7 fabb
00000150: a865 56bc 006d ed39 6066 953b 208b 3c3d
00000160: d86d 753c a841 413c 3af4 21bd a054 673d
00000170: ba19 7abd 604b 663d c0b5 ba3a 2cec 49bd
00000180: 22aa 503d f871 78bc d0a6 993b 9ab8 42bd
00000190: 00c6 bb3a 905a 083d 4004 42bb 96ab 46bd
000001a0: a0fe f7bb f088 6bbc 1c1d 6cbd b0d3 7cbd
000001b0: e896 1d3d aac3 7e3d 12c4 7ebd 2c9d d43c
000001c0: 3200 76bd baba 5fbd 48a9 30bc 94a7 fcbc
000001d0: 202c 31bb 7a70 51bd 1c6d ffbc d00d 583c
000001e0: a6f5 723d 38e3 6c3c 1897 42bc 4439 e93c
000001f0: 6cec d53c fcf0 8cbc 6806 a7bc 4c0b 7c3d
00000200: a823 143d 5cdb 0c3d e0fb 063d e02f 43bc
00000210: 6039 5c3d 8c64 193d 3860 e93c f074 8a3c
00000220: ac61 efbc 0054 37bb a064 113b 0052 3539
00000230: ccc5 a0bc 9400 cdbc 00a9 9639 30c2 7fbd
00000240: b8d1 20bc 0286 69bd b0c7 e53c 1c50 193d
00000250: bcb2 4cbd 3cae 7c3d 9c0b 43bd 7631 76bd
00000260: de81 24bd 689f e4bc 8032 47bb 2807 d4bc
00000270: b87a 71bd 64aa d0bc 46b6 4d3d a424 753d
00000280: 1c94 f3bc 104e f33c 3c84 183d 2cc6 efbc
00000290: a691 35bd d21e 463d 88e6 0dbc 72e4 373d
000002a0: 50d8 b0bc b8d3 6e3d 32ab 33bd c43d d03c
000002b0: 003a 06b9 e0b6 30bd 7494 063d 2035 a0bb
000002c0: 40f8 5f3c e80d edbc 6602 243d 667f 1c3d
000002d0: 902a 16bc e808 db3c 4450 803c 9c55 5c3d
000002e0: a284 5abd 642c 503d 306a cbbb 00de 9cb9
000002f0: d23a 36bd 7c07 56bd f628 77bd 3056 c23b
00000300: 2a44 673d d0f2 123c 50d0 2abc 1441 3dbd
00000310: 6ca6 32bd ec68 723d cc70 933c 108f 58bc
00000320: dca4 febc 48b7 183c 00c1 09ba 60dd 19bb
00000330: 9a37 09bd 309c 783d 74f2 c6bc 3c80 963c
00000340: d063 d53c 8455 d2bc a497 343d 6812 5cbc
00000350: 52e3 523d 7ac4 323d c0a1 6ebb 88a0 163d
00000360: ecdf 853c de77 7c3d c2a1 2d3d b839 1f3c
00000370: 4c22 d53c 9ee6 2bbd 04fe 3fbd d88d 283d
00000380: ec46 8e3c 16b3 2f3d 22e8 09bd 1083 db3b
00000390: 30f9 c6bb f0f3 57bc d2dd 68bd 50d2 25bc
000003a0: 864f 563d 8ce1 823c 2afc 2e3d 8c2f 00bd
000003b0: f09b b6bb 905a 363c 58b3 63bd 9e1d 263d
000003c0: 0adb 0bbd c68e 713d b2f4 2a3d a0ce e5bb
000003d0: 8803 12bc eef9 013d 8845 3cbc 8484 3f3d
000003e0: 309f 90bb 207e 123d 02ce 453d b47b edbc
000003f0: f098 50bc 6041 51bd d804 7abc 4874 3abc
0.043405995 0.05659718 0.022501253 0.002649136 0.048441924 0.00087729096 0.016831249 -0.009354696
-0.050051294 -0.0018094778 0.017540433 -0.044934757 0.021427944 -0.050451823 -0.061892048 -0.040025964
0.00259272 -0.04777044 0.055747353 -0.052645706 -0.03171839 0.015833296 0.04317429 -0.028432794
0.050301485 0.008441754 -0.023332939 -0.030363865 -0.009992152 -0.025223568 0.060584076 -0.0576161
-0.02392444 0.043024518 -0.051103234 -0.02557908 0.011254139 -0.010965735 -0.031968623 0.0072439313
0.022665925 -0.051290058 0.013373986 0.020024978 0.059856065 -0.026698157 0.029707357 -0.01781582
0.036884032 -0.019818984 0.04100123 -0.041520834 0.059050158 0.003594339 0.022339612 0.017708361
-0.034639798 0.0132808015 -0.047643498 0.05082901 -0.027943708 -0.054324694 0.011215247 -0.011976793
0.04803689 0.015010074 0.033667408 0.017466128 -0.044345453 0.05833187 0.05209499 0.05710607
0.053899392 -0.04540374 0.049750894 -0.009452336 -0.004995413 0.03685479 -0.05829663 0.05039057
0.001007162 -0.054122135 0.00095757097 -0.007658921 -0.01308576 0.00045285374 0.004559323 0.046031117
0.014979802 0.011795439 -0.039539553 0.05647719 -0.06105969 0.056224227 0.001424484 -0.049297497
0.0509435 -0.015163891 0.004689075 -0.04753933 0.0014325976 0.033289492 -0.0029604584 -0.04850348
-0.0075681955 -0.01437591 -0.05764495 -0.06172532 0.038473994 0.06219832 -0.062198706 0.025953852
-0.06005878 -0.054621436 -0.010782547 -0.030841626 -0.0027034357 -0.051132657 -0.031179957 0.013186887
0.0593163 0.01445847 -0.011876844 0.02846969 0.026113711 -0.017204754 -0.020388797 0.06153421
0.036166817 0.034388885 0.03295505 -0.01191327 0.053765655 0.037449405 0.028488263 0.016901463
-0.029221378 -0.0027973652 0.0022185221 0.00017292053 -0.019625567 -0.02502469 0.00028736144 -0.06244105
-0.009815626 -0.057012565 0.02804932 0.037429914 -0.049975142 0.0616896 -0.047618493 -0.060105763
-0.040162914 -0.027908042 -0.003039509 -0.025882319 -0.058954924 -0.025471874 0.050222658 0.059849396
-0.02973371 0.029700309 0.037235484 -0.0292693 -0.044328354 0.048369236 -0.00866092 0.044895597
-0.02158752 0.05830738 -0.043864436 0.025420077 -0.00012800843 -0.043143153 0.03285642 -0.0048891455
0.013670027 -0.028937295 0.04004135 0.038207434 -0.009165421 0.026737645 0.015663274 0.05379258
-0.053349145 0.050823584 -0.006207727 -0.00029920042 -0.04448969 -0.05225323 -0.060341798 0.0059306845
0.05646149 0.008969024 -0.010425642 -0.04620464 -0.043615744 0.059182093 0.017998122 -0.0132177025
-0.03108447 0.009321041 -0.00052548945 -0.0023477897 -0.03350029 0.060695827 -0.024285533 0.018371694
0.02604857 -0.025675543 0.04408993 -0.013432123 0.05148632 0.043644406 -0.0036412328 0.03677419
0.016342126 0.06163775 0.042390592 0.009718351 0.02601733 -0.04196798 -0.046873108 0.041150898
0.017367803 0.0428954 -0.033668645 0.0066989735 -0.006072186 -0.013180718 -0.05685217 -0.010120943
0.052321933 0.01597669 0.04272095 -0.031295344 -0.0055727884 0.01112999 -0.055590957 0.04055559
-0.03414444 0.05897405 0.041737266 -0.007013157 -0.008911975 0.031732492 -0.011491187 0.046757236
-0.004413508 0.035764813 0.048292167 -0.02898965 -0.012731776 -0.051087737 -0.015259944 -0.011380263

fc3.bias f4 [128]
00000000: 707d 1dbd 2ac5 6f3d 7664 5b3d a831 04bd
00000010: 40a2 baba 401b 283c 460f 7a3d fedd 62bd
00000020: 0e9f 3d3d 5225 583d a689 3d3d 7ced d7bc
00000030: de51 133d 0081 9dba c03d f5bb baaf 3a3d
00000040: 4065 5d3b b444 45bd 80b6 6cba 340f 6a3d
00000050: 4c8f b5bc 78dd d53c a8df 183d 1851 593c
00000060: 4c61 fa3c 2824 34bd b818 5fbd b04e 83bc
00000070: 5c14 49bd 3086 ffbb 0099 373c a06e 1fbc
00000080: 946f 70bd 9cfe e63c b626 333d 80f6 cdbc
00000090: d453 21bd 7c3b 503d 98ef 753c 04ab bb3c
000000a0: 509d db3b 7265 42bd 04fc 443d c42c 5bbd
000000b0: 929a 3abd 6850 b13c 8032 8ebc d88e e2bc
000000c0: cce0 c03c 60b8 473b c293 5b3d 7e10 23bd
000000d0: f079 a63b 60c7 503d de0e 7dbd 12cf 21bd
000000e0: 983e 9b3c 606e 79bb 0034 48bc f039 983c
000000f0: 48dc 11bd 2674 6f3d 705a 9d3c 98cc 34bc
00000100: d434 f93c 84ee ca3c 4410 62bd 32ac 2e3d
00000110: 90c4 783c 9a66 14bd 7ed2 0bbd 1e45 153d
00000120: 663d 453d 1c24 5ebd e647 243d 18bd afbc
00000130: 587c 61bd 0695 6fbd c43a f63c b454 173d
00000140: 00e3 443a 22cf 173d bcab 393d b2c4 5dbd
00000150: d669 2a3d 68b0 4bbd d43c 9cbc 1841 3dbd
00000160: e42a df3c f4ca 2ebd 4026 073d 9cec d1bc
00000170: 4c76 17bd fe61 5ebd b4bf a73c 201a 453b
00000180: cc9c 383d b4cc a03c a81e a33c 906b 903b
00000190: 0628 3e3d 00ad e1ba d43c b63c 2487 bebc
000001a0: 40a6 f5ba 70b0 bc3b 6a5f 373d ce5c 1d3d
000001b0: e099 143b 9252 523d 5a90 70bd f8da 39bd
000001c0: 9e50 25bd 20d6 ffbc e027 fe3b f096 92bb
000001d0: 84b9 b93c 4015 413d d2cf 653d 84bd 9cbc
000001e0: a4ff 193d 7450 ae3c b803 45bd 4491 c93c
000001f0: b080 793c d4ca 303d 1093 b33c 0488 1a3d
-0.038449705 0.05853764 0.053562604 -0.03227392 -0.0014239028 0.010260403 0.061049722 -0.05538749
0.046294264 0.052769966 0.04627385 -0.026358359 0.035966747 -0.0012016594 -0.007484168 0.045577742
0.0033782274 -0.048161224 -0.000902988 0.057143405 -0.022163056 0.026106581 0.03732267 0.013263963
0.030563973 -0.043979794 -0.054466933 -0.016028732 -0.04909168 -0.007797979 0.011205912 -0.009730965
-0.05870016 0.02819758 0.04373809 -0.025141954 -0.039386585 0.05083798 0.015010737 0.022908695
0.0067021027 -0.047460027 0.048091903 -0.05350949 -0.045557566 0.021644786 -0.017358065 -0.027656004
0.023544692 0.0030474886 0.05360771 -0.03981065 0.005080454 0.05097139 -0.061781757 -0.03950412
0.018950745 -0.0038060173 -0.012219429 0.018582314 -0.035610467 0.058460377 0.019208163 -0.011035107
0.030420698 0.024771936 -0.055191293 0.042644687 0.015183583 -0.03623066 -0.034136288 0.03644287
0.048154257 -0.054233655 0.04010763 -0.021452472 -0.055050224 -0.05849173 0.030057319 0.036946014
0.0007510632 0.03706277 0.045329794 -0.05414266 0.04160484 -0.04972878 -0.019071974 -0.046204656
0.027242132 -0.04267402 0.032995462 -0.02562552 -0.03697805 -0.05429267 0.020477153 0.0030075386
0.04507141 0.01962886 0.019912079 0.0044073537 0.046424888 -0.0017217696 0.022245802 -0.0232578
-0.0018741563 0.0057583377 0.04476873 0.038418584 0.0022674724 0.051348276 -0.058731414 -0.04537484
-0.040360086 -0.031230032 0.0077562183 -0.0044735596 0.022671469 0.047139406 0.056106396 -0.019133337
0.037597314 0.021278597 -0.04809925 0.0246054 0.015228435 0.043162182 0.02192071 0.03772737

fc4.weight f4 [15, 128]
00000000: 821e 503d fc9b 93bd 4f4a 993d 51a9 8b3d
00000010: 5350 61bd 72d5 413d b062 0b3d ecc8 d93c
00000020: f280 8abd 2707 ab3d 40bc 6fbd 7f27 31bd
00000030: f9f0 08bd 4807 5bbd 80cb 783c 7865 b3bd
00000040: 80c4 3d3c f729 a93d a06a 563b 8e1b 553d
00000050: f070 b83c 78df 33bc 8629 93bd 78f4 5dbd
00000060: 10d7 b1bd c41f ae3c c097 2a3c 5721 b23d
00000070: 5a30 30bd 6a12 3ebd e0cc 67bb 231e b23d
00000080: a836 3e3c 3196 07bd 58a3 c9bc e02c b93c
00000090: b7e9 973d 20cc 1c3b 07ad 90bd 64b0 8dbd
000000a0: 1c2c 5cbd 008c de39 0a92 563d e067 70bb
000000b0: 0d27 993d 607c 81bc e59b 4ebd e4b2 103d
000000c0: d666 8dbd c0c1 45bd a66b 773d a02b fa3c
000000d0: 501c e33c b290 223d e883 dd3c 2e38 2e3d
000000e0: 1c32 ad3c 17a2 aabd 078e 9bbd 177a 0abd
000000f0: 39e7 05bd 3a9f a4bd 3c0a 02bd 4d9b a43d
00000100: c58b 5cbd 4ef1 82bd edfa ac3d 0600 8dbd
00000110: 985b 6e3c ed96 7cbd 70a6 b23b 4626 a8bd
00000120: f856 f5bc e704 42bd 5ec1 463d c7e0 75bd
00000130: f41d b6bc 188f 4ebc a516 b03d a631 163d
00000140: 4d76 23bd 2ac5 2b3d b5aa 12bd aa69 563d
00000150: 541d 86bc a453 71bd c665 243d fa51 773d
00000160: 9034 83bc d3f5 973d 26a3 21bd 0616 9fbd
00000170: d6e6 f7bc b252 013d 9461 82bd 609f 2bbb
00000180: 1af4 473d 229b 7abd 1cf7 0c3d ac7f 9d3c
00000190: 9f4b 9f3d 955f ab3d deaf 123d d278 393d
000001a0: 746f f43c f5c5 93bd dda0 9e3d 251b 5bbd
000001b0: d0ce 9cbd 1c01 f33c 3ace 89bd 53d7 4abd
000001c0: 3c00 92bc 2ae3 f7bc 51e4 22bd 166b dfbc
000001d0: 5fc8 a6bd 264c 533d 6ade 5b3d 80cd d03a
000001e0: 2672 47bd a47d 89bd 3e2c 1f3d 00ee 573a
000001f0: 045b a9bc a6e6 383d 4c7d 62bd 2f9b 943d
00000200: f05a b3bc 0651 1e3d c5e9 a03d 90aa 983c
00000210: 5879 c93c 3743 2bbd e71f 823d b383 2abd
00000220: a806 19bc 5f35 883d 8013 7aba a709 90bd
00000230: e017 483b e63f 10bd 905c a33b 5fee 8f3d
00000240: 4098 f73c ccb9 81bc b318 73bd 20aa 7b3b
00000250: b066 b8bb 9a42 213d 6041 a3bb a097 5cbb
00000260: 5263 25bd a632 6bbd 77c6 8c3d 9c4c 20bd
00000270: f882 0f3d 40c2 c33b 5e6d 5b3d 92f8 5a3d
00000280: b890 c93c 6801 353c 73b0 a13d 481a 3abc
00000290: 7e63 22bd 4014 48bd 898d a9bd 54c9 50bd
000002a0: 9aa8 a4bd 78e9 b23c 2058 dc3b 783e 783c
000002b0: a21d efbc 35c0 83bd 9002 4fbc 7c43 15bd
000002c0: 8042 793c 4502 ad3d 45ea b13d ca68 203d
000002d0: 5804 81bd 00d6 4139 46be 60bd 80da c63c
000002e0: e871 39bc e05a 3e3c 6488 b93c 7d82 b23d
000002f0: b6ae 163d ebf8 843d 5a4b d6bc de95 513d
00000300: 2012 ebbc 7aac 7c3d a055 ed3c f0cf 803b
00000310: a442 a1bc 4315 47bd 2595 943d cac2 4a3d
00000320: ce10 273d 824b fcbc 40b8 133d 53ff 873d
00000330: 4a2e 433d c24d 613d f3dc 3bbd ffac 2bbd
00000340: 34c1 c03c 60d8 5dbc 8a66 55bd 54b1 a53c
00000350: d082 7abc c87c a2bd 8fc9 50bd 242b 0ebd
00000360: 18d5 24bc 2a25 2c3d 31f3 b03d 3a54 183d
00000370: 2e40 673d 3cf3 b7bc bb25 5fbd a07e c13c
00000380: c0ce 86ba 9084 afbb da5b 49bd d59e ad3d
00000390: 861f afbd 9226 043d e034 8f3c 5872 b0bd
000003a0: af77 b23d 7585 92bd 2628 1cbd 1075 1dbc
000003b0: b01e 4e3c 4ee6 7e3d c698 94bd 95c4 863d
000003c0: ca72 4c3d fb04 8e3d 0b6f 9dbd 29a3 68bd
000003d0: 5e36 42bd 4603 663d 96f5 233d 108c 0dbd
000003e0: da89 7e3d 4096 b4bc 6dfb 9a3d 04f3 cbbc
000003f0: 8207 84bd 9c0f 9a3c e047 9ebc 2ecc 99bd
0.050810345 -0.07207486 0.07484876 0.06819404 -0.055008244 0.047322698 0.034029663 0.026585065
-0.067628756 0.083509736 -0.05852914 -0.043250557 -0.033432934 -0.05347374 0.015185237 -0.08759588
0.011582494 0.08259957 0.0032717362 0.05202823 0.02251479 -0.010978572 -0.07185654 -0.05418822
-0.08683598 0.021255381 0.010412157 0.08697765 -0.04301486 -0.04640428 -0.0035369918 0.086971544
0.011609711 -0.033102218 -0.024614021 0.022604406 0.074176244 0.002392538 -0.07064252 -0.069184095
-0.053753003 0.00042447448 0.052385367 -0.0036683008 0.074781515 -0.015806377 -0.05044164 0.035326853
-0.0690438 -0.048280478 0.060405396 0.03053838 0.027723461 0.039688773 0.027040437 0.042534046
0.021142058 -0.083316974 -0.07595449 -0.03380784 -0.032691214 -0.080381826 -0.03174804 0.08037434
-0.053844232 -0.063936815 0.08446298 -0.0688477 0.014548205 -0.06166737 0.00545197 -0.08210425
-0.029948696 -0.047367956 0.048524253 -0.060028818 -0.02223108 -0.012607358 0.08598069 0.036668442
-0.039907742 0.041936077 -0.03580733 0.052346863 -0.016371407 -0.058917657 0.04013612 0.060380913
-0.016016275 0.07419934 -0.03946223 -0.077678725 -0.030261438 0.031573005 -0.06366268 -0.0026187524
0.048816778 -0.061183102 0.03441535 0.019225918 0.077780955 0.0836784 0.03581225 0.04528124
0.029838301 -0.07215492 0.07745526 -0.053492684 -0.07656634 0.029663615 -0.06728788 -0.049521755
-0.017822377 -0.030259687 -0.03976852 -0.027272742 -0.081436865 0.051586293 0.053678907 0.0015930384
-0.048692845 -0.06713417 0.038860552 0.0008237064 -0.020673282 0.04514184 -0.055295274 0.072561614
-0.021893948 0.03865149 0.07857088 0.018636018 0.024593994 -0.041812148 0.06353741 -0.041629504
-0.009339966 0.06650805 -0.0009539649 -0.07033091 0.0030531809 -0.03521719 0.0049853995 0.070278876
0.030223966 -0.015835665 -0.059349727 0.0038400963 -0.0056274757 0.039370157 -0.0049821585 -0.0033659711
-0.040377922 -0.05742135 0.06873792 -0.03913556 0.03503701 0.005974084 0.053571098 0.05345971
0.02460514 0.011047699 0.07894983 -0.011358805 -0.039645664 -0.048847437 -0.08278949 -0.05097325
-0.08039971 0.021839842 0.0067243725 0.015151612 -0.029188935 -0.06433145 -0.012634888 -0.03644131
0.015213609 0.084476985 0.086872615 0.039162435 -0.06299657 0.00018485636 -0.05486896 0.02427411
-0.011318661 0.011618346 0.022648044 0.08716295 0.03678771 0.0649279 -0.026158977 0.051168315
-0.028695166 0.061687924 0.028971493 0.003931038 -0.019685097 -0.04860426 0.072550096 0.04950217
0.04078751 -0.030797724 0.036064386 0.06640496 0.047651567 0.055005796 -0.04586501 -0.04191303
0.023529626 -0.013540357 -0.052099742 0.020226158 -0.015289977 -0.079339564 -0.05097347 -0.03470911
-0.010060571 0.04202763 0.08640135 0.0371897 0.05645769 -0.02245485 -0.054479342 0.02361995
-0.0010285005 -0.005356379 -0.049159862 0.084775604 -0.085509345 0.032263346 0.017481267 -0.08615559
0.08714234 -0.07154361 -0.038124226 -0.009610429 0.012580559 0.062231354 -0.07255702 0.06580464
0.04991416 0.06934544 -0.076871954 -0.056796227 -0.04741513 0.056155466 0.04002913 -0.034557402
0.062143184 -0.022044301 0.07567487 -0.024896152 -0.064467445 0.018806271 -0.019321382 -0.07509647

fc4.bias f4 [15]
00000000: 1cee a53c a860 193c 1eba f5bc a141 853d
00000010: 6b16 a23d e5cc b1bd e841 13bd 00a8 973a
00000020: 62b6 99bd ab31 ad3d 0889 0c3c ec80 3abd
00000030: b66b 033d 4111 14bd 7f29 953d
0.020255141 0.009361424 -0.029995974 0.06506658 0.07914432 -0.08681659 -0.035951525 0.0011570454
-0.0750549 0.08456739 0.008577593 -0.045533106 0.032085143 -0.036149267 0.072833054
